models/small_cnn.pth (torch, 58908 bytes, 6 tensors)

conv.0.weight f4 [16, 1, 3, 3]
00000000: d998 a23e 41e6 84be 25e8 efbc 538b 1ebe
00000010: e3e8 8cbe 699f 16be d221 ce3c a4c7 cc3e
00000020: 0f54 1d3e 5a7e 073e 7dae 94be c960 2dbe
00000030: 4141 abbe 1351 d1be 20d9 573d 7ef3 e738
00000040: 68cf c6be b279 e3bd 56c5 4fbe 30c0 063e
00000050: 084c 603e 9bec 973e 2813 343e b57b e13d
00000060: 4755 eabd 91d2 83be e28b 84be 9282 993e
00000070: df3e d73d 2f48 883e 1719 2cbd 8c29 3bbe
00000080: ccbe 62bc 7fe6 d23d 6ee7 42be e5ec ecbd
00000090: ec28 c3be 969b aebe 58ee 303e 7241 4d3d
000000a0: 065c acbe b5d4 32be 2d7a a6be 05c5 cebe
000000b0: a6e4 d8bd 743f f8bc cc68 84be 3b5e c6bd
000000c0: 238e a2bd 3bad 9abd 2d8c 963c 865c 8f3e
000000d0: 9ac5 c23d 6eba 143e b8bd 7d3e c444 89be
000000e0: 2af7 463e 279c 8fbe 2db3 863e 7f28 d4bc
000000f0: a808 84be 2c2c e5bd e91c a13e 3684 56be
00000100: 48db 06be d7f8 fa3d 3647 27be d80e b93d
00000110: 9051 73be 52f6 8abe 36d3 133d 5c7b c2be
00000120: efb4 e43c 3a39 243e 8356 4ebe c274 65be
00000130: 1143 4ebd 070f 7d3e 4ebd 973e a8aa c93d
00000140: 2ea4 62be cf01 67be ea5a 843d 31aa a63e
00000150: a1d6 79be 3ebd 8abe 796f 76be 037a b0be
00000160: b68d c1bd 1803 aebe 6ee1 05bc 0b00 573e
00000170: 9e40 5abe b195 9f3e 9f6a 8abe 8291 cdbd
00000180: 8e61 843e 9207 6d3b 1fb5 61be 5523 163e
00000190: 7f7c 8ebe 853a 513e 1d36 873e 63ba 243c
000001a0: fb1b 863d 1510 243d 4dce 62be 20c4 a33e
000001b0: eda4 5a3c 00c5 82bd 65ad 90bc 642f a93e
000001c0: 6b68 debd dfcc e0bc d0e3 b43e 4891 7cbe
000001d0: 231b 6abe cf86 0c3e 924c 61be 81ae 46be
000001e0: 2c34 c1bd c0d2 443c 981d 42be fe5f 963e
000001f0: a79f 75bd 7016 a23e 7a68 28bd 61ae a3be
00000200: 7608 d3bd 38c9 1e3e 43c3 753e acf1 c8bd
00000210: 43a5 a1be e4fe 86be 27e0 c23d d4f5 b2bc
00000220: 3d11 833e 7956 9c3e 44de 48bd 497b a9bd
00000230: 5319 95bd ef50 72be ad30 91be 516c 993e
0.31757239 -0.2595692 -0.0292855 -0.15482835 -0.27521428 -0.14709248 0.025162611 0.39996064
0.15364097 0.13231793 -0.29039374 -0.16931452 -0.33448222 -0.40882167 0.0526973 0.00011060292
-0.38830113 -0.11107196 -0.20290121 0.13159251 0.21904004 0.29672703 0.17585433 0.11009923
-0.114420466 -0.25746587 -0.25887972 0.2998243 0.105100386 0.26617572 -0.042016115 -0.18277568
-0.013839435 0.1029787 -0.19033596 -0.115686215 -0.38117158 -0.34103078 0.17278421 0.05011124
-0.33663958 -0.17463954 -0.32515088 -0.4038469 -0.10590486 -0.030303694 -0.25861204 -0.09685942
-0.07937267 -0.07552572 0.018377388 0.28000277 0.09510346 0.14524242 0.24779403 -0.26810277
0.19430223 -0.28048822 0.26308575 -0.025898216 -0.25787854 -0.11190066 0.3146737 -0.20948872
-0.13169587 0.12254494 -0.16335759 0.09036034 -0.23761582 -0.27141052 0.0360901 -0.3798474
0.027918307 0.16037455 -0.20150189 -0.22407821 -0.05035693 0.24712764 0.29636616 0.09847003
-0.22132942 -0.22559284 0.06462653 0.3255172 -0.2439828 -0.27097505 -0.24065961 -0.34468088
-0.09450857 -0.33986735 -0.008171422 0.2099611 -0.21313712 0.31168893 -0.2703447 -0.10037519
0.25855678 0.0036167842 -0.22041748 0.14661916 -0.27829358 0.2043248 0.26408473 0.010054204
0.065483056 0.0400544 -0.2214901 0.3198557 0.013344985 -0.06385231 -0.017660806 0.3304397
-0.1085976 -0.02744144 0.35330057 -0.24664795 -0.22861914 0.137233 -0.22001866 -0.19402505
-0.09433779 0.012013137 -0.18956602 0.2937011 -0.05996671 0.31657743 -0.04111526 -0.31968978
-0.10304348 0.15506446 0.24000268 -0.0981172 -0.31571397 -0.2636634 0.0951541 -0.021845736
0.2559909 0.30534723 -0.049040094 -0.08275468 -0.07280221 -0.23663686 -0.2835745 0.2996545

conv.0.bias f4 [16]
00000000: 08d3 febd 3873 533e 87d1 2abe 77f0 553e
00000010: b27f 443e db7d b4bd b76d 8e3e 0f2d 263e
00000020: 3b62 213c 27be 133d 1e15 edbd f444 6cbd
00000030: c771 f5bd 7145 a2b9 42d4 ae3e 6358 4bbe
-0.12442595 0.20649421 -0.16681491 0.20892511 0.19189337 -0.088130675 0.2781808 0.16228126
0.00985008 0.036070015 -0.115762934 -0.057682946 -0.11984592 -0.00030950786 0.34146315 -0.19857936

conv.3.weight f4 [32, 16, 3, 3]
00000000: 7602 3d3e 9073 ef3d c8c7 8c3e c7d0 923c
00000010: 8c2e 46bd 0b2c db3d 12eb 803e 636e 7c3e
00000020: 69f8 813e 767e a3ba db80 7fbd 8c7b 79bd
00000030: 97ca 2dbd d5c3 39bc 0f40 983d 00c2 5f3d
00000040: 810e 86bd f0bb 2e3d 3b92 893d 928b cf3d
00000050: b1c1 4f3e 7090 1b3e bf00 a63d 7f81 a23d
00000060: 6c1e 6e3b 4c46 953c ac62 8fba c6a6 ae3d
00000070: a3df 193c bfed 4e3d b5bd 103d 5c83 9b3d
00000080: 4478 393d 784d 46bc e2de 803d 261c 8b3d
00000090: 5d3a 30bd b2ac bfbb 83d2 843c e59f cabc
000000a0: 3e2e 873d edcf 96bd e429 8abc 5453 d83c
000000b0: 774b afbd 28e8 f73d ee9a 143e 4d4e 083e
000000c0: 3d9b 1d3d 9225 4b3c 2dd2 9c3d b0c2 0b3e
000000d0: 0788 3e3e 1a4c b43d ed72 5d3d cf31 443d
000000e0: 74cb a83d 243a 6fbd e01a 843d c712 9e3c
000000f0: e6f7 77bd 44ff a43b 22ba 74bd 9cc3 803c
00000100: 42af 7f3d 547b af3d 48c4 eebb 67a6 8fbd
00000110: 6fb3 b6bb ac49 593c 65ec 273d ac19 0d3d
00000120: 5769 7e3c c62d 0abd 0d16 b3bb cd21 01bc
00000130: bfb4 cc3b d7f7 adbd 4050 a4bd bb92 7a3c
00000140: b54d 67bd 49c9 d6bd ccc4 0d3a 16cb 04be
00000150: 3973 023d cfe9 b8bd 9841 30bd 0842 aebd
00000160: 2167 e6bc f6f1 81bd 677d c43d aef0 003e
00000170: 67f6 ca3d ef8b 0b3e c683 913d 4863 dc3d
00000180: 467a 6e3c f3ba b8bb 08d9 a13d 1b00 97bd
00000190: 8dc7 4c3d 10a9 cebb 2289 87bd d446 4abd
000001a0: 5a45 24bd 7028 c6bb 8657 a2bd 48e0 20bd
000001b0: 728a b53d 5bb6 a43d f7e0 a93d 9f07 af3d
000001c0: 4522 c93c 3f13 a63d 001d 0b3e e404 163d
000001d0: e987 e63d 47e3 37bd e029 5dbc 5832 25bd
000001e0: 3978 94bd 5a8e 20bd 27df b3bd 05fb 063b
000001f0: a8dd c3bd 8dbb f5bc e18b 74bc 4b7f 38bd
00000200: a53c 2cbd 4991 a93c 0ee4 7abc 3a1d 8d3d
00000210: 444a 39bd bd02 843d cfef b03c 4aef 8dbb
00000220: 7690 983d 7c8e 023e 5f42 283c a530 7abc
00000230: 092d f33d b7c1 123d 57bf 323b 7b4c 063d
00000240: bed8 bcbd a1fe 82bd bdb1 0bbe e4a8 a9bd
00000250: ff7d acbd fa0c 1dbe 5406 1dbe 715c 4abe
00000260: c9e1 f6bd 8be5 95bd 3866 bc3d 8ddd 513d
00000270: b20a 33bd 3019 2bbd 694e 543d 7d4c cf3d
00000280: 6296 b8bc 867d 2f3c 3715 21be de1a 66bd
00000290: 800c 34bd be5d 1bbe bfc8 8abd a060 03be
000002a0: 75ef 7a3d fca2 c6bd e80e 5b3c 7cd8 6a3d
000002b0: df26 063d 5fe4 25bd 63fb b03d 6f14 48bd
000002c0: 73d1 803d deec 933d 91f9 a9bc 368b 893c
000002d0: 5cc0 dc3c 8a95 35bd 9e3d d73d 767d da3c
000002e0: eea9 4dbd 2392 13bd 249a b33d 28ea e03c
000002f0: 3d72 a5bb b8ed 1fbe f3f5 acbd 654d 99bd
00000300: f1b5 00be e9a3 4bbd 4863 e5bd dea0 4fbd
00000310: 9a58 85bd 4863 3abe 8b9a 85bd f5ca 5dbd
00000320: d2ad ab3c 9178 973d db53 0f3c b1ec 75bc
00000330: ed25 423b 60b6 2cbd 97b1 92bd c8b7 9fbd
00000340: 482d caba 7b70 c03b 042d 123d 64f1 4b3d
00000350: f8c7 503d deba 903d 20c6 50bd 0b0f f33c
00000360: db3f d6bb d5ce 1f3d b640 283d cda2 0e3d
00000370: 5cb3 09bd 94f5 f3bc 8b83 103d ea90 dd3d
00000380: 8b22 39bd 3af3 953c 08bc 103e e9b2 153e
00000390: 6ea0 d03d f4dd 283e 3ae6 903d 64ce 893d
000003a0: 29a6 ab3d 1a9c 7b3d 1eb6 b4bd 2735 48bd
000003b0: 0bee 0fbe 5e7a fcbc 01e7 95bd 2428 a2bd
000003c0: c810 c7bd 4efc f7bd c508 5ebd a585 193d
000003d0: 8e18 e93c 3f74 d1bc b1e9 94bc 1ae1 383c
000003e0: e566 9a3d 4cd5 763d 4498 8d3d 839c 823c
000003f0: d7af 99bc b1dc 1cbe 102b eebd 93ae faba
0.1845797 0.11691964 0.2749617 0.017921818 -0.048384234 0.1070176 0.25179344 0.24651484
0.25384834 -0.0012473601 -0.062378746 -0.06090884 -0.042429533 -0.011338194 0.07434093 0.054628372
-0.06545735 0.0426597 0.067173444 0.10134043 0.20288731 0.15191817 0.08105611 0.07934856
0.003633405 0.018221997 -0.0010939441 0.08527903 0.009391698 0.0505197 0.03533717 0.07593414
0.04528071 -0.012103431 0.062925115 0.06792478 -0.04302441 -0.0058494443 0.016213661 -0.024734447
0.06600617 -0.073638774 -0.016865678 0.026406921 -0.08559316 0.12104827 0.14512226 0.1331112
0.038478125 0.012399094 0.07657275 0.13648486 0.18606578 0.08803578 0.05406468 0.047899064
0.082419306 -0.058405057 0.064504385 0.019296063 -0.06053915 0.005035313 -0.059747823 0.015718274
0.062423 0.08568445 -0.007286582 -0.070141606 -0.0055755894 0.013262194 0.040996928 0.03444831
0.015528045 -0.03373506 -0.005465275 -0.007881594 0.0062471326 -0.08494537 -0.08023119 0.015293772
-0.05647059 -0.10487611 0.0005408048 -0.12968096 0.031848166 -0.090289705 -0.043031305 -0.08508688
-0.028125348 -0.063449785 0.09594231 0.12591812 0.09910279 0.13627599 0.07105212 0.10761124
0.014555519 -0.0056375205 0.079027236 -0.07373067 0.049994994 -0.006306775 -0.06617953 -0.049383953
-0.0401052 -0.006047301 -0.0792685 -0.03927639 0.08864297 0.08042594 0.08294862 0.085463755
0.024552474 0.0810914 0.13585281 0.036625758 0.112563916 -0.044894483 -0.013498753 -0.040331215
-0.07249493 -0.039198257 -0.08782797 0.0020596397 -0.09563762 -0.029996658 -0.014925928 -0.04504327
-0.042050023 0.02069916 -0.015313162 0.0689034 -0.04523684 0.06445835 0.021598725 -0.004331504
0.07449429 0.12749666 0.01026973 -0.015270387 0.11873824 0.035829272 0.0027274692 0.03278778
-0.09221028 -0.06396223 -0.1364202 -0.082841665 -0.08422469 -0.15336981 -0.15334445 -0.19761826
-0.12054784 -0.073191725 0.09199184 0.051236678 -0.04371137 -0.041772068 0.05183259 0.10122011
-0.022532646 0.010711079 -0.15730749 -0.056177966 -0.043957233 -0.15172479 -0.067765705 -0.12829828
0.06126352 -0.096990556 0.013370253 0.05733536 0.032751914 -0.040500995 0.08641698 -0.048847612
0.06289949 0.07222913 -0.020748885 0.016790014 0.026947193 -0.044332065 0.105097994 0.026671153
-0.050210886 -0.03602804 0.08769634 0.027455404 -0.0050490187 -0.15618026 -0.084453486 -0.07485465
-0.12569405 -0.049716864 -0.11200577 -0.050690524 -0.0651104 -0.18201935 -0.06523617 -0.054148633
0.020956907 0.07396043 0.00874802 -0.015010045 0.0029624656 -0.042166114 -0.07162779 -0.07798725
-0.0015424872 0.0058727837 0.03568746 0.049790755 0.050971955 0.07066892 -0.050970197 0.029670259
-0.006538374 0.03901561 0.04107734 0.034823228 -0.033618316 -0.029780187 0.0352817 0.10818656
-0.04519896 0.018304456 0.14134228 0.1461903 0.101868495 0.16490918 0.07075162 0.06728819
0.08381302 0.061428167 -0.088237986 -0.048878815 -0.1405565 -0.030820068 -0.07319451 -0.079178125
-0.09719998 -0.1210867 -0.054207582 0.03748097 0.028454091 -0.025568126 -0.018177839 0.011284137
0.07539157 0.06026201 0.06913808 0.015943771 -0.018760605 -0.15318562 -0.11629307 -0.0019125513

conv.3.bias f4 [32]
00000000: 3074 0c3d 8923 b2bd a09e fdbc 2a1b 0bbd
00000010: 43a9 b13d 13b5 423d bc2d fbbc 22a1 6fbd
00000020: 2ee7 8cbd 1e57 fabc 5dfb 9cbd 6404 98bd
00000030: 906c 51bd 0228 45bc 8cdb 183d bc43 cf3d
00000040: 92db b63d 1749 753d 74ae 36ba 7f3d b23d
00000050: 6291 f43c 9dd3 4b3c 4cc1 ca3d f8c8 23bd
00000060: ccb2 c73d d003 be3d 69e1 97bc b9e6 5e3d
00000070: 4f0a 5fbd de84 55bd 7077 a63d f058 f4bc
0.034290493 -0.08698184 -0.030959427 -0.033961453 0.08674862 0.047535967 -0.030661456 -0.058503278
-0.068800315 -0.030559119 -0.07665131 -0.074227124 -0.051128924 -0.012033464 0.03731875 0.10120341
0.089285985 0.059884157 -0.00069687446 0.08703136 0.02985448 0.012440589 0.0990015 -0.03998658
0.097509 0.09278071 -0.018540101 0.054419253 -0.05445319 -0.052128665 0.0812825 -0.029827565

fc.weight f4 [2, 4608]
00000000: 7c72 e0bc 590a 07bc deb3 53bc 9ea5 b2bc
00000010: 4e83 1bbc fb7f 98bc 6bb4 28bd 2d21 b7bc
00000020: 4304 dbbc f6df f9bc cd1e adbc 2513 4abc
00000030: e5b7 bebb 0557 b13b 4a8b b4ba bc07 89bc
00000040: 21a8 0bbb 3a82 eabb fc8e 79bc 2a0b 84bc
00000050: 44f4 babc 8840 cabc 51d4 95bc c526 b2bc
00000060: 4ab8 89bc 4d9f 7fbb 3a16 d0bc a3b7 8dbc
00000070: 4cd1 f9bc 77b8 13bd 97db 19bd 448c 25bc
00000080: 171d 4bbc 8839 0dbc fc4b 5bbc 9e5a 96bc
00000090: 2e44 b3bc a43c babc 94fd e2bb 66cc 93bc
000000a0: d05e b3bc c014 9ebc b29a bebc 4197 48bc
000000b0: 2cb5 b3bc 766d 3abc e12e acba 8821 46bc
000000c0: a242 5bbc df49 81bc a691 92bc 51cc afbc
000000d0: 17da 65bc 4e28 ddbc f970 c6bb 1611 ebbc
000000e0: a85c 06bc c2a9 0abd 1df2 10bd 1198 2bbc
000000f0: 3727 ecbc 4b54 0bbd bd40 d8bc f386 55bc
00000100: a691 1cbb 8841 b1bc 073b f7bc 3d0c c3bc
00000110: cb85 b4bc abe0 ffbc 68c9 b3bc 856d 12bc
00000120: e546 a0bc 5f18 c9bc 5bf3 13bc 68d6 b1bc
00000130: 9a57 13bd d0de ffbc 1fc1 f4bc 7ea6 33bc
00000140: 4c65 afbc 49c6 20bc 72ab eebb e77c a4bc
00000150: d46f 00bd be3e d0bc 3456 1dbb 0871 9abc
00000160: c029 85bc 3b47 44bc 5d79 d0bc f9cc 53bc
00000170: e2aa 7fbc c67e d5bc aa17 09bd 4faa d8bc
00000180: a9c4 68bc d0c7 19bc e6b8 d3bc 9634 fabc
00000190: a046 a3bc 3fdc bcbb 4ef6 e3bc a2a8 a5bc
000001a0: 0244 25bc 6250 64bc 8191 dfbc a96c 28bc
000001b0: 5660 2dbc 783a a5bc bff8 aebc 6906 8cbc
000001c0: eb7d 26bc a800 9dbc 1116 d2bc 5e6b debc
000001d0: 74f6 c8bb 002b 87bc 0838 e6bc 2b75 93bc
000001e0: 1067 84bb dc70 19bc fbbb 9bbc 0a4f 98bc
000001f0: d802 09bd b049 27bc 2b4c babb 6339 bfbc
00000200: c39c e4bc 0101 41bc e105 f3bc 10cd e9bc
00000210: 58a0 d1ba 95c0 82bc 52ef cabb a0ec 37bc
00000220: 0c6d fb3a 9d44 6cbc 0127 95bc a152 c2bb
00000230: fb0f 0bbd 0b28 10bd 7e3b 51bc cfb3 d5bc
00000240: fc12 e63b 99bd 233d c10f 323d eb5c 103d
00000250: 14b7 243d 3944 e83c 3abb c63c 1cf6 2f3d
00000260: 1d25 183d ec64 973c 0021 1d3d 94c8 2d3d
00000270: 1a84 853d d743 903d f1c0 833d f611 3e3d
00000280: cb68 403d 5b4b 483d de12 243d 0c27 023d
00000290: 93f0 683d 96bb 693d e4a4 2b3d a9d3 753d
000002a0: 268a 4f3d d2ec 563d 32fa 763d 14d3 2b3d
000002b0: 4369 1f3d 8b5b 193d b1dc 4b3d c5bd 7a3d
000002c0: 8f67 393d f83c 4a3d 044b 113d c540 693d
000002d0: 1c19 453d 4f46 553d 9ad2 283d 3ccd 443d
000002e0: a68a 283d be2c 663d 48ac ef3c 0ad5 533d
000002f0: 6fc6 2f3d 812e 4e3d 0e3d 243d e6eb 4c3d
00000300: 8688 323d b3f1 323d 7499 7e3d fecf 593d
00000310: a0df 353d d664 183d 2b7d 213d bd3e 233d
00000320: 5519 273d f2da 523d 204c 823d 15e0 693d
00000330: ae8d 0e3d 3570 833d 2387 753d 3b34 4a3d
00000340: 636e 753d b71d 333d 87db 793d 72e1 623d
00000350: ebef 2d3d ff14 123d 584c 3b3d 450f 1b3d
00000360: 09a6 143d c0d5 233d bd0e 0c3d de7a 713d
00000370: 58d4 513d 3b83 393d ae2f 693d dbb5 153d
00000380: 2d6c 803d 2b01 523d ec5e 423d 9334 233d
00000390: ad22 523d c68a 093d 12ed 613d 664d 153d
000003a0: bbf6 083d 5768 133d 8467 553d be39 823d
000003b0: cb9e 2a3d 9dec 493d 673f 693d fd5a 2f3d
000003c0: d433 4a3d 8974 093d 9d08 4e3d d9f7 333d
000003d0: d8e0 2d3d b832 603d e47c 0c3d 8009 3c3d
000003e0: 6194 2a3d 1390 523d d07c 493d 90ae 543d
000003f0: d1ed 733d cee1 603d f315 393d ea24 7b3d
-0.02739834 -0.008242213 -0.012921302 -0.021807488 -0.009491755 -0.018615713 -0.041187685 -0.022354687
-0.02673543 -0.0305023 -0.021132851 -0.012333666 -0.005820262 0.005411985 -0.0013774422 -0.01672732
-0.002130993 -0.0071566375 -0.015231844 -0.016118605 -0.022821553 -0.024688974 -0.018289717 -0.021747002
-0.016811509 -0.0039004863 -0.025401223 -0.017299479 -0.030495308 -0.03606459 -0.037562933 -0.010104243
-0.012397072 -0.008619674 -0.013384815 -0.018353757 -0.021883097 -0.022733994 -0.0069272015 -0.0180418
-0.021895796 -0.019297004 -0.023267124 -0.012243093 -0.021936975 -0.011378637 -0.001313653 -0.012092955
-0.013382586 -0.015782295 -0.017891716 -0.02145973 -0.014029047 -0.026996758 -0.006055948 -0.02869467
-0.008200802 -0.0338533 -0.035387147 -0.010473267 -0.028827293 -0.034015935 -0.026398057 -0.013032663
-0.0023890524 -0.021637693 -0.030179514 -0.023809547 -0.022036454 -0.03123506 -0.021946624 -0.008937244
-0.019565055 -0.024547754 -0.009030188 -0.021708682 -0.035972215 -0.031234175 -0.029877244 -0.010964988
-0.021410607 -0.0098129 -0.0072836215 -0.02007909 -0.031356648 -0.025420543 -0.002400768 -0.018852726
-0.01625526 -0.011979873 -0.025448496 -0.012927287 -0.0156047065 -0.026061427 -0.033469833 -0.026448397
-0.014207044 -0.009386018 -0.025845002 -0.030542653 -0.019931138 -0.00576356 -0.027827408 -0.020222012
-0.010087015 -0.01393518 -0.027291061 -0.010279813 -0.01058205 -0.020169482 -0.021358846 -0.0170929
-0.010161857 -0.019165352 -0.025645288 -0.027150806 -0.006132895 -0.016499996 -0.02810289 -0.018000206
-0.0040406063 -0.009365287 -0.019010535 -0.018592376 -0.033449978 -0.01021044 -0.0056853495 -0.023342794
-0.027906781 -0.0117800245 -0.02966589 -0.028540164 -0.0015993221 -0.01596097 -0.00619308 -0.011225849
0.0019182279 -0.014420656 -0.018207075 -0.0059302603 -0.033950787 -0.035194438 -0.012770532 -0.026086716
0.007021306 0.039975736 0.043472055 0.035244863 0.04021366 0.028352844 0.024259198 0.042959318
0.03714477 0.01848074 0.03836155 0.042427614 0.06519337 0.070441894 0.06433285 0.046403848
0.04697494 0.04889999 0.040057056 0.03177552 0.056870054 0.05706366 0.0419053 0.060016308
0.050668858 0.052471943 0.0602972 0.041949347 0.038918745 0.037440818 0.049771015 0.061216135
0.045264777 0.04937455 0.03547193 0.056946535 0.04811965 0.052069005 0.04121647 0.04804729
0.04114785 0.056195013 0.029256955 0.05171684 0.04291385 0.05033732 0.04009729 0.050029658
0.04358723 0.043687534 0.062158063 0.053176872 0.04440272 0.03720554 0.03942601 0.039854754
0.040795643 0.051478334 0.06362176 0.057098467 0.034803085 0.06417886 0.05994333 0.049366217
0.059919726 0.04372951 0.061000373 0.055390783 0.04246513 0.035664555 0.045727104 0.03785636
0.036291156 0.03999877 0.034193743 0.058955066 0.051227897 0.045291167 0.056930237 0.036550384
0.06270633 0.051270645 0.047453806 0.03984506 0.0513026 0.03357961 0.05515773 0.036450766
0.033438426 0.035988178 0.052100673 0.0635867 0.041655343 0.049297918 0.05694523 0.042811383
0.049365833 0.033558402 0.050301183 0.043937538 0.042450756 0.05473587 0.034298792 0.045907497
0.04164541 0.05140693 0.049191296 0.05192429 0.05955297 0.054902844 0.045186948 0.0613145

fc.bias f4 [2]
00000000: b7f0 f9bc 8436 fa3c
-0.03051029 0.030543573
