models/small_cnn.pth (torch, 58844 bytes, 6 tensors)

conv.0.weight f4 [16, 1, 3, 3]
000000 2e f7 5e 3c 80 1e 5e be ac 13 c1 bd 92 4b e5 be
       0.013608737 -0.21691322 -0.0942758 -0.44784218
000010 42 19 47 bd 46 f8 27 bd f8 32 7c be d3 41 ae 3e
       -0.048608072 -0.041008256 -0.24628818 0.34034595
000020 91 5b a7 3c a8 bc 3f 3e f8 2a 1c 3e 6b d7 1e 3e
       0.020429404 0.1872431 0.15250766 0.15511863
000030 b7 37 62 3e c9 81 d6 3d 4d 3a a7 be f5 ea a0 be
       0.22091566 0.10473973 -0.32661667 -0.31429258
000040 03 c4 a5 3d f4 16 87 3e 0b cb 97 be ee a2 ff bc
       0.08094027 0.263847 -0.29647097 -0.03120562
000050 7c 6b c6 bd d4 1b 81 3e 7d 64 b9 3d 1b 9c 8e be
       -0.0968847 0.25216544 0.0905237 -0.27853474
000060 69 c1 95 3e 35 45 bd 3d 3f 59 63 3e d2 dd 01 be
       0.29249123 0.09241716 0.22202013 -0.12682274
000070 1e 17 19 3e e8 2c b6 3d 6e 2f a4 3e e3 b3 60 3e
       0.14950225 0.08895284 0.32067436 0.21943621
000080 d6 42 83 3e 64 c1 9c 3c 09 79 57 be 04 f8 1f 3c
       0.2563693 0.019135185 -0.21042265 0.009763721
000090 bc 5a 58 3e ce 6f 5f 3e d4 0c d7 bd 88 08 43 3d
       0.21128362 0.21819994 -0.10500494 0.047615558
0000a0 20 08 8e 3e e5 7c 0a be 6c 0c 94 3e 1e ca 0c 3e
       0.27740574 -0.13524206 0.28915727 0.13748977
0000b0 78 11 1f 3d 9d b0 d7 bd 4b 37 f3 3d e8 3e 90 bd
       0.03883502 -0.10531733 0.11875781 -0.070432484
0000c0 90 c1 4e be 49 3d 1c be 03 03 94 be 5e 00 55 3d
       -0.20191026 -0.15257753 -0.28908548 0.052002303
0000d0 24 db 6e 3d 49 fd 89 be f6 94 0b be c0 45 d0 3b
       0.058314458 -0.26951054 -0.13631043 0.006355971
0000e0 bf 10 8e be df 99 8f 3e f0 52 ef 3c 0e 5c 0c be
       -0.2774715 0.28047082 0.029214352 -0.13706991
0000f0 e6 2d 00 be a6 e0 68 be 34 fc a2 bd b6 f4 17 be
       -0.12517509 -0.22741947 -0.0795826 -0.14839444
000100 f3 bb 14 be 28 10 90 3e fa 00 3a 3e c5 ef 15 3e
       -0.14524822 0.28137326 0.18164435 0.14642246
000110 d2 d0 fd bd 99 ff be 3d 59 a6 3b 3e d0 c3 0a 3e
       -0.12393345 0.09326095 0.18325175 0.13551259
000120 fb 96 c0 bc 93 21 91 be 55 7c 15 3d e3 61 61 be
       -0.023509493 -0.28345928 0.036495525 -0.22009997
000130 65 a1 07 be dd ee f7 bd 63 99 1b 3d d9 8c 60 be
       -0.13245161 -0.121061064 0.037988078 -0.21928729
000140 32 67 7c be d3 e0 aa 3d 82 7b e9 b8 45 b9 76 be
       -0.24648741 0.08343663 -0.00011133311 -0.24094112
000150 2e be a4 3d 4f 76 6a 3e 91 3d 0c be cf 4e 8b be
       0.080440864 0.22896694 -0.1369536 -0.27208564
000160 15 c8 42 be cb e4 3f be 7a 8d 7b be 24 50 17 be
       -0.19021638 -0.18739621 -0.24565688 -0.14776665
000170 04 e2 05 be 33 99 2d 3d 7c 39 81 bd 77 3c 3c be
       -0.130745 0.04238243 -0.063097924 -0.1838244
000180 11 b5 62 be 67 94 11 3e 3c c4 35 be a2 cd 9d be
       -0.22139384 0.14216767 -0.17750639 -0.30820948
000190 ea 40 68 be c2 88 83 bd af 67 80 3e 69 f5 b7 3e
       -0.22681013 -0.06422569 0.25079104 0.3592942
0001a0 81 c3 95 37 f6 42 85 3e d5 cb 5f be 35 1e ee 3d
       1.7853223e-05 0.2602765 -0.218551 0.11626855
0001b0 6e 41 2f 3e 4c b4 5c 3e fb 63 03 3e 82 20 be be
       0.17114803 0.21553153 0.12831108 -0.37134176
0001c0 41 63 96 be fb 61 b4 bd 8d 4b 21 be 22 23 ca be
       -0.293726 -0.08807751 -0.15751477 -0.3947993
0001d0 dd 5b 37 be 9a 20 c1 be 5a fb 28 3e 05 33 c8 bc
       -0.17906137 -0.37720186 0.16502133 -0.02443839
0001e0 3b b6 86 be 9e d7 7c 3e 08 28 29 be d0 b8 8d bd
       -0.26310906 0.24691626 -0.16519177 -0.06920016
0001f0 43 46 cd be 49 fb be be 65 cd 8b be a8 f5 2c be
       -0.40092668 -0.3730109 -0.2730514 -0.16890585
000200 bc bd 5c 3c 24 c0 d7 3d 51 0d 4a be b0 9c a4 be
       0.013472971 0.10534695 -0.19731642 -0.32150793
000210 0e 7d 2b 3e e5 c2 6b be 87 e7 07 be 7d b8 4f 3e
       0.16746923 -0.23023565 -0.13271914 0.2028522
000220 44 2a f5 35 37 56 01 3e c1 ad 98 3e 6f d8 54 be
       1.8266223e-06 0.12630545 0.29820064 -0.20785688
000230 f9 af 1f 3e e1 cf 23 be 26 89 67 be 71 96 95 3e
       0.15594472 -0.15997268 -0.22610912 0.2921634

conv.0.bias f4 [16]
000000 32 f6 b6 3c 70 d5 2e 3e 02 2c 8c be b3 d3 0a 3e
       0.022334192 0.17073607 -0.27377325 0.1355732
000010 c4 e6 43 3e 89 6a e1 3c 0a 6d aa be f3 6c cf bd
       0.19130999 0.02751662 -0.33286315 -0.10128202
000020 05 3d 76 be c4 9d 80 3e 45 fb 95 3e a6 1b 5b be
       -0.24046715 0.25120366 0.29293266 -0.21397266
000030 bb e5 d8 3c a1 da 45 3d 2d 59 93 3e 00 b3 5e be
       0.026476732 0.048304204 0.28778973 -0.2174797

conv.3.weight f4 [32, 16, 3, 3]
000000 e0 56 33 3b c0 26 96 ba c3 f5 93 3d 00 f8 2c 3a
       0.0027365014 -0.001145564 0.0722461 0.0006598234
000010 3a 51 78 3d 26 d5 24 3d 74 c5 a9 3c 96 15 50 3d
       0.06062434 0.040242337 0.020724036 0.050801836
000020 4e 6a 78 3d 00 36 13 3d ca 1d 98 bd 80 47 6b bb
       0.060648255 0.03594017 -0.07427557 -0.0035900772
000030 38 12 40 bc d0 81 90 3b 0a a0 13 3d c8 8c 61 bc
       -0.011723094 0.004410006 0.036041297 -0.013766475
000040 20 14 9a bc e7 c3 8f bd f6 88 5a bd d8 bd 38 3c
       -0.018808424 -0.07019787 -0.053353272 0.011275731
000050 da d4 7b 3d d0 a5 08 3d f3 74 84 3d 86 84 0c bd
       0.061482288 0.033361256 0.06467619 -0.03430607
000060 d9 50 96 3d ea 23 39 3d 76 58 17 bd 2a 21 5e 3d
       0.07339639 0.045200266 -0.036949597 0.054230846
000070 60 42 80 bd 6a d0 88 bd f0 71 a2 3b d8 06 a8 bd
       -0.0626266 -0.06680377 0.00495743 -0.0820443
000080 ec f7 c0 bc 92 2f 87 bd 80 6d f3 bc f0 d9 ea 3c
       -0.023555718 -0.0660087 -0.0297153 0.028668374
000090 ac 64 89 3c c6 a7 df bc c0 1e fc 3a bc 61 b9 bc
       0.016771637 -0.02730168 0.0019235238 -0.022629611
0000a0 55 bf 90 3d 53 33 82 bd c6 3e 2a bd 90 a4 89 3b
       0.07067744 -0.063574456 -0.04156377 0.0042005256
0000b0 20 6b 97 bd ef 11 97 bd e8 30 19 3c e8 79 57 bd
       -0.07393479 -0.073764674 0.009350039 -0.052606493
0000c0 58 46 1b bd 92 b9 3d 3d 7a 36 7b 3d de b8 22 bd
       -0.037908882 0.04631955 0.06133125 -0.039727084
0000d0 38 79 78 bc 36 da 64 bd e0 f2 0e 3c ee fa 8d bd
       -0.01516562 -0.055872165 0.008724898 -0.06932627
0000e0 cb 8a 59 bd bb c5 87 3d b7 82 82 bd 44 48 ed 3c
       -0.05311088 0.06629511 -0.06372588 0.028965123
0000f0 a0 db e0 3c 8d 67 96 3d 62 8e 8e bd 70 03 1f 3d
       0.027448475 0.073439695 -0.06960751 0.038821638
000100 30 9d 84 3c 72 17 48 3d ca 4f 2e 3d 93 6d 7c bd
       0.016188234 0.048850484 0.04255656 -0.061627936
000110 f8 76 13 bd 62 3a 10 3d b8 fe 2a bd 26 c0 88 bd
       -0.03600213 0.03521193 -0.041746825 -0.066772744
000120 88 13 96 bd 30 66 e0 3b 7e af 3e 3d 00 8c df b9
       -0.07327944 0.006848119 0.04655408 -0.00042638183
000130 18 8e 21 3d a6 67 6d 3d 5a 82 25 3d 94 04 de 3c
       0.03944215 0.057960175 0.040407516 0.027101792
000140 93 ad a2 bd 88 4d 7f bd 80 fe 9d 3b 82 c1 13 3d
       -0.07943263 -0.0623298 0.0048215985 0.036073215
000150 18 1b 16 bd 0b f8 54 bd 8c 41 9c bd e6 ea aa bc
       -0.036646932 -0.051994365 -0.076296896 -0.020863961
000160 00 4c a3 bc 98 70 52 bc 40 c0 1c bc f3 6a 2a bd
       -0.0199337 -0.012844227 -0.00956732 -0.0416059
000170 20 5b 13 bc 70 f1 a4 3c 7f be 96 bd 00 72 21 39
       -0.008993894 0.020134658 -0.07360553 0.00015396625
000180 cf be a5 bd ac 1c f9 3c ce 12 26 3d 52 26 86 bd
       -0.080930345 0.03040918 0.040545277 -0.06550278
000190 90 b4 fc bc 0a 00 50 3d c0 6c bf 3b a0 9a 2b 3b
       -0.030847818 0.050781287 0.0058418214 0.0026184693
0001a0 b0 f7 85 bd b8 49 6c 3c 3e bc 10 3d 7b f9 9b 3d
       -0.06541383 0.014421873 0.03533577 0.07615944
0001b0 d6 26 0f 3d 98 b2 5b bd e9 2c 8c 3d ae 9c 4e bd
       0.034949146 -0.053637117 0.068445034 -0.05044239
0001c0 27 de 96 bd 4e b4 7b bd e1 c8 90 3d 52 da 94 bd
       -0.07366591 -0.06145125 0.070695646 -0.07268204
0001d0 f0 f2 00 bd 83 52 98 bd a0 a7 74 bc 62 8d 41 3d
       -0.031481683 -0.07437613 -0.014932543 0.047253974
0001e0 66 86 da bc 58 a4 6e 3c 62 c4 01 3d 2c 3c 8a bd
       -0.026675414 0.01456555 0.031681426 -0.06749758
0001f0 40 9d ca 3a 07 22 90 bd 72 fc 51 3d b4 b9 8b bd
       0.0015458241 -0.0703774 0.05126614 -0.068225294
000200 53 7d 7d bd cc c6 84 bc c8 ab 6d bc 3e 6a 55 bd
       -0.061887097 -0.016208075 -0.014506288 -0.052103274
000210 68 b9 56 bd 7c 2c c2 bc 36 58 45 3d f5 93 81 3d
       -0.05242291 -0.023702852 0.048179828 0.06327049
000220 00 a3 45 3b d6 e4 1f bd d0 9f 88 bd 00 bc bd 3a
       0.003015697 -0.039036594 -0.06671107 0.0014475584
000230 66 e9 22 bd ba 69 4d 3d 10 db 49 bd d2 9d 4c 3d
       -0.039773367 0.050149657 -0.04928118 0.049955197
000240 ce 37 1f 3c 9c dd 92 3d 65 df a1 bc 02 31 f9 3c
       0.009717895 0.07171175 -0.019759843 0.030418877
000250 44 57 64 bd 90 a2 e4 bd e5 83 34 bd f0 2b c0 3c
       -0.055747285 -0.11163819 -0.044071097 0.023458451
000260 30 66 0b 3d 5c 86 5d bd 99 31 31 3d 42 ff b0 3b
       0.034033 -0.054083213 0.04326019 0.005401523
000270 4e c4 30 3d 6d 79 66 bc fd 41 39 3d 1d 19 dc bc
       0.04315596 -0.014067036 0.045228947 -0.026867444
000280 57 9c 30 bd ea 3e f5 bc 9b 8f 5e bc 19 c2 95 bd
       -0.043117847 -0.029937226 -0.013584043 -0.07312412
000290 c7 1c cf bd 35 2f fb bd 01 13 f9 bd 05 f7 82 bd
       -0.10112911 -0.122648634 -0.12161828 -0.063947715
0002a0 93 30 af bc 04 20 fe bd 5e cc d7 bd 5b b9 ae 3d
       -0.021385467 -0.1240845 -0.10537027 0.085314475
0002b0 09 32 5b 3d d9 70 51 bc 01 d1 9a bc b9 52 7f 3d
       0.053514514 -0.012783253 -0.018898489 0.06233475
0002c0 aa 15 86 3d bc 24 0a 3d 3a 12 fb bc cf f9 87 3d
       0.06547101 0.03372644 -0.03064834 0.06639444
0002d0 48 ee 03 bc 9f e3 ad 3d 9d 01 29 bd 04 4f 95 ba
       -0.008052416 0.08490681 -0.041261304 -0.0011391346
0002e0 50 f9 a4 bc dd 0c 2c bd 9e f2 ae 3d 73 1b ec 3c
       -0.020138413 -0.042004455 0.08542369 0.028821683
0002f0 30 27 89 3d df 5f f2 3d 82 6c 65 bd eb 01 ae 3d
       0.066969275 0.11834692 -0.056011684 0.084964596
000300 72 4a 96 3d 7c b0 9f bd d3 74 fe bc c6 47 8f 3d
       0.07338418 -0.077973336 -0.031061566 0.069961116
000310 66 d8 37 3d 47 47 1d 3d 67 06 92 bd 6c 16 f1 bc
       0.044884108 0.038398053 -0.071301274 -0.029429637
000320 de 07 31 bd 66 62 30 3d 58 df 65 3c fb 45 8d 3d
       -0.043220393 0.04306259 0.0140303 0.06898113
000330 a3 b9 81 3d 5a 10 91 bd f6 11 42 bd 58 b5 8a bd
       0.063342355 -0.07083197 -0.04738041 -0.0677287
000340 7d ae 80 bd 44 d3 aa 3d 62 45 ab 3c 32 95 92 3d
       -0.06283281 0.08341077 0.020907108 0.07157363
000350 ee 12 bb 3d 62 c1 3b bd 25 db 6a 3d 76 0c ac 3d
       0.0913447 -0.04583872 0.0573379 0.08400814
000360 a0 79 98 bd ff a6 0e bd 45 d6 07 3d e8 43 3a bc
       -0.07445073 -0.03482723 0.033163328 -0.011368729
000370 ef 0b eb bc 02 db 20 3d 3e 9b 0d bc bd 01 98 3d
       -0.028692214 0.039271362 -0.00864297 0.074222066
000380 ba 56 e9 3c 73 d7 66 bd 43 a6 98 bc 85 3a 40 bd
       0.028483737 -0.056357812 -0.018633967 -0.04693081
000390 b1 8b 63 3c bf 77 bd 3b e6 43 c4 bc ee 93 43 bd
       0.0138882855 0.005782097 -0.023958158 -0.0477485
0003a0 bf 1b 84 3d bd d8 89 bd 9a bc ab bd f7 89 32 3d
       0.06450605 -0.06730793 -0.08385582 0.043588605
0003b0 2a 06 08 3d 42 02 80 3c b6 df c5 bd d6 60 ef bd
       0.033209004 0.015626077 -0.0966181 -0.11688392
0003c0 ca 54 89 3c 12 40 c9 bd 41 71 b9 3c 68 85 b6 bd
       0.016764063 -0.098266736 0.022637011 -0.08912164
0003d0 c8 35 92 bd cd 88 ee bd ca 89 18 be 0c ff 00 be
       -0.07139164 -0.116471864 -0.14896312 -0.12597293
0003e0 81 37 1e be ad bc 50 bb 5a b0 b1 bd ce d6 91 bd
       -0.1545086 -0.003185074 -0.086762145 -0.07121049
0003f0 2b b3 71 3d df 07 80 3c 3f 28 b8 bd e4 81 ff bb
       0.05900876 0.015628753 -0.08992051 -0.0077974666

conv.3.bias f4 [32]
000000 b0 88 de bc 6e 31 5e bd b4 cf 7d bd ee 6e 73 3d
       -0.027164787 -0.05424636 -0.06196566 0.059431963
000010 0f cd 26 3c fe dd 36 bb e1 24 b7 3a ad 47 d4 3b
       0.010180726 -0.0027903314 0.0013972783 0.006478271
000020 61 68 97 3c 14 e6 a9 3d 44 75 81 bc 0a 3d 69 3d
       0.018482389 0.08295837 -0.015802987 0.056942977
000030 6b fd c7 ba 91 bb 95 bc 1f 77 bf 3c ec 33 99 3c
       -0.001525802 -0.018277915 0.023372231 0.018701516
000040 31 ea 6b 3d 6c 7a 12 bc 66 b9 85 3d 9d 0a bd bd
       0.05759639 -0.00894032 0.065295026 -0.0923054
000050 fa 25 7d 3c 56 7c 8c 3c 13 a8 50 bd c2 93 d1 3d
       0.015450949 0.017149132 -0.050941538 0.10233261
000060 5e c9 03 bc e1 3e 1b bd 3f df 0e bd 94 09 ce bb
       -0.008043615 -0.037901763 -0.034880873 -0.006287763
000070 8f 68 33 bd b1 9b 2d 3d 12 91 8e bd e6 78 64 3c
       -0.043800887 0.042384807 -0.06961264 0.01394484

fc.weight f4 [2, 4608]
000000 dd 57 5e 3c 64 22 5e 3b ac 82 4f 3b c1 7c f0 bb
       0.013570753 0.003389501 0.003166358 -0.0073390906
000010 61 c7 43 3c 14 81 5c bc 40 f8 f9 b9 25 4b f3 bb
       0.011949391 -0.013458509 -0.00047677942 -0.0074247294
000020 5b b9 06 3c 74 a2 1c 3b 96 9c a1 3b 2f 97 6c 3c
       0.008222903 0.002390054 0.0049319966 0.014440342
000030 16 ef 9b 3b e9 63 67 bc a6 4d be 3b a8 0f b8 3a
       0.004758726 -0.0141229415 0.0058075963 0.0014042752
000040 ca 8a a4 3b 3a 48 80 3b 9c 89 05 bc c0 16 02 bb
       0.0050214278 0.00391486 -0.008150484 -0.0019849986
000050 77 8a 70 3c 32 b7 c6 bb 50 78 cb bb e6 88 99 3b
       0.01468145 -0.006064319 -0.0062094107 0.004685509
000060 c0 fc 7c ba 59 51 01 3c 1a 00 53 bc 9a ee b5 bb
       -0.00096507 0.00789293 -0.012878442 -0.005552125
000070 f4 6e 69 bb 99 d6 56 3c 20 26 46 bc 0c 2f 47 3b
       -0.0035619112 0.0131126875 -0.012094051 0.0030393032
000080 48 60 79 bb ec 48 5b bc 80 1f b8 b8 5e 8b 8e 3b
       -0.0038051773 -0.013384085 -8.779671e-05 0.00435011
000090 03 c5 20 3c 08 de c9 bb f0 da 2d ba a8 39 44 bb
       0.009812596 -0.0061605014 -0.00066320505 -0.0029941592
0000a0 78 0a 62 bb f1 f8 33 bc f0 d1 be ba 4e ee 96 bb
       -0.0034491103 -0.010984645 -0.0014558416 -0.004606045
0000b0 53 10 51 bc 86 d0 cf 3b 47 1f 52 bc 42 4b a1 3b
       -0.01276024 0.0063419966 -0.01282484 0.0049223015
0000c0 d0 2f ac ba b8 83 13 bb e4 30 3e bc 68 03 a9 ba
       -0.0013136808 -0.002250893 -0.011608336 -0.0012894692
0000d0 ae 2e e2 bb f4 b1 1e 3b 7d aa 67 3c 9c db 03 3b
       -0.0069025373 0.0024214955 0.014139769 0.002011991
0000e0 b4 6c 67 bb 0f b7 04 bc 98 02 83 3a 79 ba 18 3c
       -0.0035312595 -0.008100285 0.000999528 0.009321802
0000f0 d8 65 94 3a 72 cc 21 bc f5 ec 1a 3c 0c 3c 4f bc
       0.0011321856 -0.009875404 0.009455909 -0.012648594
000100 bf 9e f3 bb 52 0d e0 3b 66 2e 3a bc e1 1f 40 3c
       -0.0074346955 0.0068375254 -0.011363601 0.0117263505
000110 69 b9 34 3c 10 bf a3 ba 74 de 20 3b a3 64 4f 3c
       0.011030533 -0.0012492854 0.0024546655 0.012658271
000120 2f 4e 6d 3c 1e 84 1c bc 89 fa 19 3c ac d6 2b bc
       0.014483972 -0.009552984 0.009398111 -0.0104881935
000130 ce 79 d5 bb 54 ff 0e bc 09 77 37 bc c5 24 22 3c
       -0.0065147644 -0.008727867 -0.011197814 0.009896462
000140 b4 8c 92 bb ae 6d c5 3b c1 9a 20 bc a0 66 32 3a
       -0.0044723395 0.0060250377 -0.009802521 0.00068054534
000150 4e 15 4a bc 4c 1b a8 bb 00 96 20 ba 9e f4 9c 3b
       -0.012334181 -0.005130207 -0.00061258674 0.004789903
000160 76 c0 48 bc 4a a6 a1 bb 37 8c 69 3c 19 03 43 3c
       -0.0122529175 -0.0049331533 0.014254621 0.011902594
000170 da 96 29 bc b2 40 e7 3b 50 63 d0 ba 84 0e 24 3b
       -0.010350907 0.007057273 -0.0015898738 0.0025033066
000180 73 61 3e 3c 42 fd 9f bb a4 a3 60 bc 4f 1b 64 3c
       0.011619913 -0.0048824856 -0.01371089 0.0139225265
000190 11 5f 39 3c 66 12 e6 3b ab 7d 28 bc 45 98 6b 3c
       0.0113141695 0.0070212362 -0.010283868 0.014379566
0001a0 4e 69 2c bc 52 45 a3 bb a2 bc ec 3b c4 09 01 3b
       -0.0105231535 -0.004982629 0.007224635 0.0019689659
0001b0 a5 2c 48 3c 4d 10 3b 3c 07 2d 6e 3c 85 6a 62 3c
       0.012217675 0.011417461 0.014537103 0.013819342
0001c0 f1 17 02 bc 52 ac 8a 3b 41 18 35 3c ba 18 e9 3b
       -0.007940278 0.004231968 0.011053146 0.0071135433
0001d0 1d 99 40 3c 4f 27 07 bc 76 1d 92 3b 12 b0 2b bc
       0.011755255 -0.008249118 0.0044590784 -0.01047899
0001e0 2f 4f 4d 3c ab 99 3a bc 8a 8e 19 bc 7c 5d 4d bc
       0.012531086 -0.011389176 -0.009372363 -0.012534495
0001f0 45 3a 62 3c 0c de 59 3b 7e 72 21 bc 6a 94 bb 3b
       0.013807838 0.0033243923 -0.009853957 0.0057244794
000200 00 52 7b ba 3f 3f 25 bc 1a ca ef 3b 5c f1 85 bb
       -0.0009587109 -0.01008588 0.0073177936 -0.00408761
000210 f2 7c ed 3b c2 38 b5 bb 3a 9e 11 bc 8e 59 a4 3b
       0.0072475607 -0.0055304477 -0.008887822 0.0050155586
000220 8c a3 28 3b 53 40 0b bc f6 61 3f bc df 99 57 3c
       0.0025732247 -0.008499223 -0.011681071 0.013159244
000230 1f b1 1b 3c 11 98 53 3c de c5 ca 3b 60 5f 5f 3a
       0.009502678 0.012914673 0.0061881384 0.0008520987
000240 78 75 da 3b e5 65 3c bb a0 6c a9 3b ba 41 08 3c
       0.0066668354 -0.0028747257 0.00517042 0.008316452
000250 1d a9 e8 3b c3 0f 88 bb bd 2e bb 3b 68 f6 99 3c
       0.007100238 -0.0041522696 0.0057123587 0.018794253
000260 ee ef fd ba bf 23 00 ba 6e c0 e0 3a 47 96 49 3b
       -0.0019373873 -0.0004888139 0.0017147192 0.0030759738
000270 f8 5d 39 3c a4 3f 44 3c 27 14 a5 3c 51 ea 85 3c
       0.011313908 0.011978064 0.020151211 0.016347082
000280 25 31 56 3b bc 10 f5 3b 6c a8 6c bb a9 15 e3 3b
       0.00326831 0.0074788015 -0.003611113 0.0069300723
000290 89 6a cc 3c 0e 1a e2 3c d3 ef 97 3c fb ee 79 3c
       0.024953144 0.027600314 0.018546974 0.015254731
0002a0 18 35 cb 3c 37 70 4b 3c b9 88 2a 3c 1c 13 18 3c
       0.02480559 0.012416891 0.010408574 0.0092819
0002b0 b1 73 0e 3c 7b 46 49 3c f6 bd 34 3c e0 dc a4 3b
       0.008694575 0.01228487 0.011031618 0.005031213
0002c0 c7 90 93 3c 44 6a a2 3c 0b 22 0e 3d 98 1f fb 3c
       0.018013371 0.019826062 0.034700435 0.030654714
0002d0 eb 19 dd 3c 26 d6 73 3c b4 6a dc 3c 1a 5f 1b 3c
       0.026989898 0.0148826 0.026906349 0.009483123
0002e0 1a a6 24 3c c8 c5 41 3c 83 bf 0c bc 51 73 c2 ba
       0.010049367 0.01182694 -0.008590582 -0.0014835392
0002f0 7e ee 01 3c f9 cf 87 3c 8d 36 c9 3c 26 a0 a9 bb
       0.007930396 0.016578661 0.024562145 -0.005176562
000300 6b 1c 38 3c af 28 ea 3c d3 ac 87 3b d9 99 88 3c
       0.011237244 0.028583853 0.0041404753 0.016674923
000310 74 cf 89 bb 48 67 f6 3b f0 2f a0 bb 0e 57 e7 bb
       -0.0042056385 0.0075196363 -0.004888527 -0.0070599383
000320 15 1e ac 3a 6f 49 d1 3a e8 60 67 3c 62 87 8e 3b
       0.0013131524 0.001596732 0.014122225 0.004349635
000330 a2 37 f9 3b 8f 64 0c 3c b8 b6 d3 3b cc be 7b 3c
       0.007605509 0.008568897 0.0064609908 0.015365314
000340 d5 2a 4f 3c 48 e9 e3 bb 7e 0c 1a bb e6 fa 71 3c
       0.012644489 -0.0069552995 -0.002350598 0.0147692915
000350 7d 2f 2e 3b 27 64 b9 3b cd 49 9f ba 6c 58 e4 ba
       0.0026578598 0.005657691 -0.0012152732 -0.0017421371
000360 1c 14 eb 3c 09 2e 71 3c 73 63 9e 3c 6d a7 26 3c
       0.028696112 0.014720448 0.01933453 0.010171753
000370 19 5b 97 bc c2 5d 70 bc 1f 7e 79 3c 98 33 8e bb
       -0.018476056 -0.014670791 0.0152278235 -0.0043396465
000380 6a b5 41 3a 80 aa 70 3c 88 95 17 3c 35 12 07 3b
       0.00073893985 0.014689088 0.00925196 0.0020610217
000390 76 8f dd 3c 63 d0 a5 3c b1 64 36 3c 1d c0 ee 39
       0.027045947 0.020240968 0.011132405 0.00045538033
0003a0 9c d8 b7 bb 46 cb 1a 3c c3 22 80 bb 2a f4 39 3c
       -0.0056105386 0.009447878 -0.003910394 0.011349717
0003b0 22 49 90 3b 65 9c 4f 3b 66 86 b8 3b 45 29 89 3b
       0.0044032494 0.0031678912 0.005631256 0.004185828
0003c0 0d 47 7b 3c 05 61 b0 3c 05 3c a2 3c f7 67 5e 3c
       0.015336764 0.021530638 0.01980401 0.013574592
0003d0 bf af 5a bc ef 69 7a 3c 7c c8 64 3c 1f 81 f1 3c
       -0.013347565 0.015284046 0.013963815 0.029480515
0003e0 2f 0a 06 3d 06 b4 d4 3c 32 25 4c 3c 0b 74 6d 3b
       0.032724556 0.025964748 0.01246004 0.0036232497
0003f0 e0 a9 3c 3d 9a da b9 3c be 2d 22 3c b5 c8 25 3b
       0.046060443 0.022687245 0.009898601 0.0025296633

fc.bias f4 [2]
000000 62 ab a9 bc af 5a 9f 3c
       -0.020711605 0.019452421
